assests/models/model_amazon.pt (torch, 7653 bytes, 15 tensors)

lstm.weight_ih_l0 f4 [16, 1]
0.039150648 0.09488543 0.31348243 -0.5514725 -0.032228693 -0.04649406 -0.1077208 -0.47879854
-0.52661496 0.6277829 -0.1764767 0.76359516 -0.064013496 -0.14702906 0.122338325 -0.6902373
00000000: 6e5c 203d 4b53 c23d c580 a03e 4d2d 0dbf
00000010: 3c02 04bd 8e70 3ebd b99c dcbd 1525 f5be
00000020: 3dd0 06bf 61b6 203f 4fb6 34be f97a 433f
00000030: 8219 83bd c98e 16be 848c fa3d 64b3 30bf

lstm.weight_hh_l0 f4 [16, 4]
0.2883775 0.059522104 -0.4876559 -0.66362965 0.8079788 0.029195435 -0.42007473 0.13489382
0.18494242 0.3210465 0.13102777 0.56848013 -0.08037703 0.3538611 -0.69266415 0.44224858
0.65337235 0.15379484 -0.11999494 -0.075800575 -0.0028370784 -0.6691452 0.070208296 -0.17618927
-0.78580034 -0.09611537 -0.23495704 0.44979313 -0.42419514 0.26982662 0.14069243 0.02374733
-0.33604833 -0.5935827 -0.48522863 -0.449145 0.48304674 -0.17557816 -0.34599334 -0.21525231
0.05110851 0.065601 0.02860976 0.07041865 -0.503571 0.49500343 -0.10890437 0.2228203
0.57464135 -0.6839111 -0.0882975 -0.43427467 0.3369429 -0.3016591 -0.6708792 -0.38565147
-0.037608895 0.0072812396 -0.45796785 0.36469135 0.29222468 0.16311009 -0.77537155 -0.44487032
00000000: 37a6 933e 73cd 733d 09ae f9be a2e3 29bf
00000010: b3d7 4e3f 442b ef3c 0914 d7be 9b21 0a3e
00000020: 8c61 3d3e 3560 a43e 252c 063e ea87 113f
00000030: b69c a4bd 482d b53e 7052 31bf 686e e23e
00000040: 6943 273f 657c 1d3e e8bf f5bd 553d 9bbd
00000050: 47ee 39bb 1a4d 2bbf 5ec9 8f3d f66a 34be
00000060: 362a 49bf 23d8 c4bd 9498 70be 494b e63e
00000070: 1b30 d9be b726 8a3e ad11 103e c389 c23c
00000080: 870e acbe 09f5 17bf e36f f8be 55f6 e5be
00000090: e751 f73e c3ca 33be 0a26 b1be 1a6b 5cbe
000000a0: 2857 513d d159 863d 045f ea3c a737 903d
000000b0: 07ea 00bf 1771 fd3e 4109 dfbd 012b 643e
000000c0: b21b 133f cc14 2fbf 52d5 b4bd 4059 debe
000000d0: c883 ac3e 1073 9abe bdbe 2bbf 1c74 c5be
000000e0: c90b 1abd 7797 ee3b c37a eabe d3b8 ba3e
000000f0: 799e 953e 5506 273e c07e 46bf 0bc6 e3be

lstm.bias_ih_l0 f4 [16]
0.11939509 0.0405361 -0.15732369 0.31638277 -0.011142549 0.051116668 -0.090687715 -0.32348466
0.07608214 -0.3891089 -0.6182157 -0.37543914 0.32614967 0.25941452 -0.027361391 0.5286797
00000000: 6a85 f43d 2e09 263d 7619 21be ecfc a13e
00000010: 3d8f 36bc b65f 513d 7bba b9bd c89f a5be
00000020: f4d0 9b3d 4839 c7be 6243 1ebf 8f39 c0be
00000030: 17fd a63e fbd1 843e ff24 e0bc 8e57 073f

lstm.bias_hh_l0 f4 [16]
-0.007912307 0.34725747 0.08738034 0.53040254 0.20898122 0.5471626 -0.13479626 0.4683996
-0.15120517 0.41636613 6.172655e-05 -0.38246024 0.18894376 0.6739184 -0.030641533 -0.116085306
00000000: 9fa2 01bc bbcb b13e 77f4 b23d 76c8 073f
00000010: 2cff 553e d912 0c3f 0808 0abe 13d2 ef3e
00000020: 87d5 1abe f12d d53e 3073 8138 d4d1 c3be
00000030: 797a 413e eb85 2c3f f403 fbbc 22be edbd

fc.weight f4 [1, 4]
-0.8373786 0.8748798 -0.22538298 0.4933822
00000000: 725e 56bf 1ff8 5f3f ccca 66be 979c fc3e

exp_avg f4 [16, 1]
-4.700419e-05 -0.00010903726 -3.3282584e-05 -1.721046e-05 -7.172487e-05 -0.0001790306 -3.7183407e-05 -2.1771266e-05
0.00015535946 0.00018565786 6.2176114e-05 -0.0002652896 -7.354522e-05 -9.7037766e-05 -5.05623e-05 -3.171909e-05
00000000: 5d26 45b8 efaa e4b8 e798 0bb8 2e5f 90b7
00000010: ff6a 96b8 29ba 3bb9 61f5 1bb8 70a1 b6b7
00000020: fde7 2239 27ad 4239 8c64 8238 9116 8bb9
00000030: 4a3c 9ab8 c180 cbb8 db12 54b8 1d0a 05b8

exp_avg_sq f4 [16, 1]
1.777933e-08 7.874905e-08 3.175175e-08 5.827664e-09 6.862993e-08 2.5725043e-07 1.9590235e-08 2.6124402e-08
3.8047943e-07 2.1584083e-05 1.6312593e-07 7.5771356e-07 4.2296683e-08 6.125353e-08 4.616513e-08 2.8350467e-08
00000000: 29b9 9832 c01c a933 6b5f 0833 ad3c c831
00000010: b461 9333 3b1c 8a34 6247 a832 2b68 e032
00000020: b244 cc34 770f b537 b727 2f34 ae65 4b35
00000030: b2a9 3533 7c8a 8333 1947 4633 5687 f332

exp_avg f4 [16, 4]
2.173505e-05 -2.1287122e-05 1.656012e-05 -9.032277e-06 3.330054e-05 -4.1872154e-05 3.1007636e-05 -1.538984e-05
6.364428e-06 -1.5822714e-05 1.7820548e-05 8.066558e-06 9.645948e-06 -7.961614e-06 4.120196e-06 -6.4566807e-06
3.4324363e-05 -2.7049004e-05 1.556819e-05 -2.4192645e-05 7.2220886e-05 -6.5613116e-05 3.6133268e-05 -5.6563687e-05
9.387586e-06 -1.6820195e-05 1.6419328e-05 2.9386076e-06 1.4492768e-05 -7.941236e-06 1.0065806e-06 -1.3856982e-05
-2.2191614e-05 5.901289e-05 -6.292032e-05 -3.3081799e-06 -0.000250848 4.5551196e-06 0.00020262058 0.00042082396
-1.0156894e-05 3.1673153e-05 -3.8112048e-05 -2.1208118e-05 7.4361604e-05 -0.000113606584 9.9927645e-05 -5.676681e-06
3.3429304e-05 -2.6719854e-05 2.1183201e-05 -1.9806736e-05 3.2613112e-05 -3.958832e-05 3.3025717e-05 -1.4037329e-05
1.171417e-05 -2.3790402e-05 2.4659425e-05 5.6021986e-06 2.0278962e-05 -1.2854244e-05 6.525561e-06 -1.3842747e-05
00000000: aa53 b637 bf91 b2b7 96ea 8a37 5689 17b7
00000010: 2fac 0b38 e29f 2fb8 320e 0238 6e19 81b7
00000020: 058e d536 05bb 84b7 567d 9537 9a55 0737
00000030: 08d5 2137 df92 05b7 3740 8a36 77a6 d8b6
00000040: 81f7 0f38 4be7 e2b7 6f98 8237 4ff1 cab7
00000050: 4b75 9738 c699 89b8 cd8d 1738 cc3e 6db8
00000060: 607f 1d37 1819 8db7 3dbc 8937 e534 4536
00000070: f725 7337 593b 05b7 d919 8735 497b 68b7
00000080: 2128 bab7 9c84 7738 17f4 83b8 1902 5eb6
00000090: 4084 83b9 2ed8 9836 8c76 5439 09a2 dc39
000000a0: 8767 2ab7 cad8 0438 80da 1fb8 16e8 b1b7
000000b0: 95f2 9b38 1240 eeb8 3f90 d138 527a beb6
000000c0: 7136 0c38 7324 e0b7 94b2 b137 a426 a6b7
000000d0: 10ca 0838 a30b 26b8 1885 0a38 de81 6bb7
000000e0: fa87 4437 8091 c7b7 b6db ce37 85fa bb36
000000f0: bd1c aa37 8fa8 57b7 24f6 da36 253e 68b7

exp_avg_sq f4 [16, 4]
8.406452e-09 3.463621e-09 2.798068e-09 8.457871e-09 8.544163e-09 1.8167128e-08 1.4823424e-08 2.8476144e-08
4.0098667e-09 5.0456355e-09 3.946537e-09 7.937282e-09 3.726464e-09 1.8210262e-09 1.2415227e-09 1.3257808e-08
3.2004902e-08 6.077817e-09 4.040003e-09 4.71462e-08 6.0506686e-08 4.130817e-08 2.7289282e-08 1.2021727e-07
2.017137e-09 4.2132458e-09 3.4436713e-09 2.318189e-09 1.355173e-08 5.3214597e-09 3.3873007e-09 4.3234866e-08
1.8324427e-07 1.9279156e-07 1.1624874e-07 6.909329e-07 7.5577686e-06 1.9943486e-06 9.295864e-07 1.594784e-05
2.2452312e-08 2.2939744e-08 1.7219545e-08 4.473674e-08 6.830163e-08 1.9758534e-07 1.6131654e-07 7.850144e-08
1.9997188e-08 5.448311e-09 4.691033e-09 2.0588256e-08 7.53423e-09 1.6778946e-08 1.3764434e-08 1.2786695e-08
5.6810023e-09 9.356898e-09 7.659753e-09 8.766271e-09 2.094478e-08 6.9472916e-09 3.6687204e-09 5.4282225e-08
00000000: f86b 1032 aa04 6e31 2248 4031 1c4e 1132
00000010: a0c9 1232 f00d 9c32 1caa 7e32 b49b f432
00000020: 29c7 8931 e15d ad31 1b9a 8731 895c 0832
00000030: 530a 8031 aa47 fa30 32a2 aa30 75c4 6332
00000040: c375 0933 0bd5 d031 3ed0 8a31 cc7d 4a33
00000050: e7ef 8133 d06a 3133 c469 ea32 1215 0134
00000060: d99d 0a31 1ac4 9031 b5a5 6c31 034e 1f31
00000070: 24d1 6832 0ed8 b631 06c6 6831 3db1 3933
00000080: cdc1 4434 2402 4f34 6ca4 f933 8c78 3935
00000090: bd98 fd36 a6d6 0536 b188 7935 bac7 8537
000000a0: 28dd c032 080d c532 2eea 9332 9124 4033
000000b0: 38ad 9233 d827 5434 5a36 2d34 9f94 a833
000000c0: 48c6 ab32 da33 bb31 c32e a131 0eda b032
000000d0: e56f 0132 4b21 9032 9f78 6c32 7bac 5b32
000000e0: a032 c331 13c0 2032 f397 0332 789a 1632
000000f0: 0fea b332 06b5 ee31 d01c 7c31 f023 6933

exp_avg f4 [16]
-5.0143597e-05 -9.102713e-05 -7.574716e-05 -8.536325e-06 -2.9682167e-05 -7.054713e-05 -6.124187e-05 1.0538375e-05
0.00020544417 -0.0011533981 0.00016748582 -0.0003438198 -5.2517214e-05 -9.9471836e-05 -9.3331946e-05 -9.940967e-06
00000000: 4751 52b8 d1e5 beb8 72da 9eb8 3d37 0fb7
00000010: f8fd f8b7 b4f2 93b8 fb6e 80b8 facd 3037
00000020: 806c 5739 9e2d 97ba 229f 2f39 b642 b4b9
00000030: ee45 5cb8 899b d0b8 35bb c3b8 21c8 26b7

exp_avg_sq f4 [16]
3.35166e-08 2.539773e-07 7.750792e-08 3.727471e-08 1.1341834e-07 5.405393e-07 4.5451028e-08 1.266217e-07
2.3875093e-06 4.2241652e-05 3.6852038e-07 2.0282127e-06 6.750725e-08 1.6565178e-07 1.0965658e-07 1.3098087e-07
00000000: e4f3 0f33 605a 8834 6e72 a633 fa17 2033
00000010: 6490 f333 9419 1135 ef35 4333 82f5 0734
00000020: 1939 2036 a12c 3138 0ed9 c534 6e1c 0836
00000030: 81f8 9033 04de 3134 587c eb33 bfa3 0c34

exp_avg f4 [16]
-5.0143597e-05 -9.102713e-05 -7.574716e-05 -8.536325e-06 -2.9682167e-05 -7.054713e-05 -6.124187e-05 1.0538375e-05
0.00020544417 -0.0011533981 0.00016748582 -0.0003438198 -5.2517214e-05 -9.9471836e-05 -9.3331946e-05 -9.940967e-06
00000000: 4751 52b8 d1e5 beb8 72da 9eb8 3d37 0fb7
00000010: f8fd f8b7 b4f2 93b8 fb6e 80b8 facd 3037
00000020: 806c 5739 9e2d 97ba 229f 2f39 b642 b4b9
00000030: ee45 5cb8 899b d0b8 35bb c3b8 21c8 26b7

exp_avg_sq f4 [16]
3.35166e-08 2.539773e-07 7.750792e-08 3.727471e-08 1.1341834e-07 5.405393e-07 4.5451028e-08 1.266217e-07
2.3875093e-06 4.2241652e-05 3.6852038e-07 2.0282127e-06 6.750725e-08 1.6565178e-07 1.0965658e-07 1.3098087e-07
00000000: e4f3 0f33 605a 8834 6e72 a633 fa17 2033
00000010: 6490 f333 9419 1135 ef35 4333 82f5 0734
00000020: 1939 2036 a12c 3138 0ed9 c534 6e1c 0836
00000030: 81f8 9033 04de 3134 587c eb33 bfa3 0c34

exp_avg f4 [1, 4]
-3.1925356e-05 -0.00029576456 0.0003738478 0.0002020824
00000000: 97e7 05b8 d910 9bb9 0101 c439 15e6 5339

exp_avg_sq f4 [1, 4]
6.111966e-06 2.5611523e-06 1.819914e-06 1.1898129e-05
00000000: 6315 cd36 43e0 2b36 c543 f435 139e 4737
