assests/models/model_google.pt (torch, 8404 bytes, 15 tensors)

lstm.weight_ih_l0 f4 [16, 1]
000000 e8 21 05 bf 48 f2 a0 bf 09 fc 28 bf ea d2 78 3d
       -0.5200486 -1.2573938 -0.66009575 0.06074802
000010 89 68 1d bf 0f 9f 00 bf c3 75 78 bf f3 ce f2 3e
       -0.61487633 -0.50242704 -0.9705469 0.47423515
000020 c3 da 0f be d2 47 09 bf 24 dc 9c 3f ff 6c 0a 3f
       -0.14048295 -0.53625214 1.2254682 0.54072565
000030 b6 53 e4 be 99 34 3e bf d8 d9 e1 bf a2 08 9e 3f
       -0.44595116 -0.7429901 -1.7644606 1.2346385

lstm.weight_hh_l0 f4 [16, 4]
000000 4e 9e 87 bd 29 3e 80 be 73 f3 53 be eb 02 a8 3e
       -0.06621991 -0.25047424 -0.20698337 0.32814726
000010 87 2d 0e 3e f1 cf 98 be 07 ad fb bd 00 f9 6a bf
       0.13884555 -0.29846147 -0.12288862 -0.91786194
000020 49 b4 25 3f 1c f4 20 3f d4 e3 2e 3d 5f 1a 9f 3e
       0.6472822 0.6287248 0.042697743 0.31074807
000030 bb 3d a7 3e 80 21 b2 3e 1a d1 bd be 3c 87 de be
       0.32664284 0.34791183 -0.37073594 -0.4346255
000040 a0 8a 83 3d 84 a7 10 bf d0 90 83 be 76 e5 9e be
       0.06422925 -0.5650561 -0.2569642 -0.3103444
000050 cf 90 6a be fe e5 a8 be 11 cd 6a 3e 56 85 93 bf
       -0.22906803 -0.3298797 0.22929789 -1.1525066
000060 1a 19 20 3e ed 8e 14 bf 5e 9b 12 3f 89 b7 d3 be
       0.15634575 -0.5803059 0.5726832 -0.41350964
000070 5a c5 c5 3e fd b8 01 3f e4 80 e1 bd 03 72 05 bf
       0.3862713 0.50672895 -0.11010912 -0.52127093
000080 f6 56 14 be 97 a1 ee 3e 1a 6e c5 bd af 5a 80 3e
       -0.14486298 0.46607658 -0.09640141 0.25069186
000090 40 d0 15 3f f0 e6 07 3f cb ce 0b bc eb 09 c8 3e
       0.5852089 0.5308676 -0.00853319 0.39070067
0000a0 90 13 09 bf b3 77 00 be 1b 26 d5 3e 0c 27 36 3f
       -0.53545475 -0.12545662 0.41630635 0.7115333
0000b0 df 4b 62 be 06 19 fa 3d 31 2d e8 be e1 7d 9a bd
       -0.22099255 0.12211804 -0.45346978 -0.07543541
0000c0 be 0a 2c 3e 28 6f 52 be 13 9e 2c bd 00 dd 01 bf
       0.16800973 -0.20550215 -0.04214294 -0.50727844
0000d0 bb 48 d7 3e a5 ef c9 3e ea 51 92 be 17 49 17 bf
       0.42047676 0.39440647 -0.2857812 -0.590959
0000e0 f0 d0 8c 3e e9 d1 65 3e 9a d1 be 3e 8b df 36 bf
       0.27503157 0.22443356 0.37269288 -0.7143485
0000f0 48 a9 4a 3f 11 00 15 3f f9 75 04 bf c6 95 8d 3e
       0.7916455 0.58203226 -0.5174251 0.2765333

lstm.bias_ih_l0 f4 [16]
000000 b9 16 ea bd 04 f0 75 be 94 57 60 3f 57 89 17 3f
       -0.11430115 -0.2401734 0.87633634 0.5919394
000010 8e 08 3d 3e 29 ac 82 be 20 be dd 3d 77 d6 05 be
       0.18460295 -0.25521973 0.10827279 -0.13070093
000020 20 6f 88 3e fe 5a 14 3f ce 6e 0a bf ec 07 50 3e
       0.26647282 0.57951343 -0.54075325 0.20315522
000030 2e 70 a2 3e 57 4d a8 3e 73 30 02 3f e3 5b b8 3e
       0.3172621 0.32871506 0.5085518 0.36007604

lstm.bias_hh_l0 f4 [16]
000000 2d 38 13 3d 67 32 13 3d be 62 cc 3e 3d 09 bf 3e
       0.035942245 0.03593674 0.39919084 0.37311736
000010 5c bd 3a 3e 89 80 ee 3b 8c d8 68 bc 14 a4 07 3f
       0.18236297 0.007278506 -0.014211785 0.5298474
000020 6b ea 16 3e ae 23 0c 3f d7 8e f1 be 98 bd 24 3e
       0.14737861 0.5474194 -0.4717929 0.1608795
000030 06 96 18 3f 78 7d 32 3f 05 d6 23 bd bb cb 8d 3d
       0.5960392 0.697227 -0.039999027 0.06923624

fc.weight f4 [1, 4]
000000 78 c7 a7 be 85 7e 27 bf 0b f4 46 3f 11 5e 4e 3f
       -0.3276937 -0.6542743 0.7771613 0.80612284

exp_avg f4 [16, 1]
000000 3f 66 25 38 fe f8 22 38 1e 79 13 36 07 f2 11 b8
       3.943429e-05 3.8855702e-05 2.1975206e-06 -3.47961e-05
000010 09 26 31 38 65 4d 10 38 fc 25 88 37 da 5f b8 b8
       4.223551e-05 3.4404355e-05 1.6230151e-05 -8.7916575e-05
000020 70 8a a3 38 5d 24 b3 36 71 76 20 b8 ae 91 37 ba
       7.798232e-05 5.338849e-06 -3.825728e-05 -0.0007002604
000030 b7 26 4b 38 63 83 9f 37 11 4f d0 37 58 6c 80 b8
       4.8435028e-05 1.9015459e-05 2.483235e-05 -6.123696e-05

exp_avg_sq f4 [16, 1]
000000 51 0d 33 33 6d cf 4c 33 7a 44 20 2f ed c7 00 33
       4.1688796e-08 4.7686104e-08 1.4576243e-10 2.9984154e-08
000010 7c a3 5e 33 d3 82 10 33 d3 5e 09 32 81 13 6a 34
       5.183709e-08 3.3646597e-08 7.99601e-09 2.1800044e-07
000020 93 6f 1c 34 99 1c 0a 30 cc 99 7a 32 1c c2 65 37
       1.4569223e-07 5.024475e-10 1.4586885e-08 1.3694658e-05
000030 63 2c 86 33 44 d2 1e 32 08 f4 dd 32 ed 33 d5 33
       6.247935e-08 9.244619e-09 2.5838759e-08 9.928031e-08

exp_avg f4 [16, 4]
000000 42 de 09 b7 9e a9 7f b7 4d d6 94 37 c8 e1 4d 37
       -8.217585e-06 -1.52386765e-05 1.7742766e-05 1.2271521e-05
000010 3b f6 e7 b6 17 79 50 b7 e0 29 70 37 5b 9d 82 37
       -6.9130015e-06 -1.24259595e-05 1.43148645e-05 1.5570482e-05
000020 e4 37 c5 35 f3 f3 6b 35 c5 0d 89 b5 ef 49 77 36
       1.469391e-06 8.7899315e-07 -1.0211303e-06 3.6848903e-06
000030 31 b2 73 b6 86 18 2b 36 37 ab 63 b6 9f 52 e1 b7
       -3.6313543e-06 2.549526e-06 -3.3925296e-06 -2.6860564e-05
000040 bf b0 5d b7 89 e5 a9 b7 54 11 c4 37 75 09 16 37
       -1.3213778e-05 -2.0253256e-05 2.337309e-05 8.942899e-06
000050 f0 f8 93 b7 4d 30 ac b7 31 e0 ca 37 80 5f 7e b5
       -1.7639686e-05 -2.052649e-05 2.4184674e-05 -9.4761344e-07
000060 b2 4d 33 b6 f5 ae 95 b6 88 a0 ae 36 f8 74 ed 36
       -2.6718303e-06 -4.4609137e-06 5.2042924e-06 7.0767674e-06
000070 45 93 82 36 d0 75 97 37 8f 56 b4 b7 06 c5 56 b8
       3.8914463e-06 1.8055463e-05 -2.149798e-05 -5.120507e-05
000080 cd 0a b8 b6 70 ae a2 b7 aa 47 c2 37 ce 72 19 38
       -5.4848847e-06 -1.9393134e-05 2.3159973e-05 3.6584963e-05
000090 df c5 e0 35 05 e8 08 35 f1 fa 02 b5 6f 86 ba 36
       1.6746889e-06 5.100158e-07 -4.879394e-07 5.558882e-06
0000a0 cf 59 da b7 41 1a 8a b7 b6 93 82 37 fc c4 6c b8
       -2.6029446e-05 -1.6463107e-05 1.556599e-05 -5.645024e-05
0000b0 cc 1c 9d 39 9c 11 d1 39 75 08 f3 b9 9c 25 33 b8
       0.0002996683 0.00039876706 -0.00046354873 -4.2711952e-05
0000c0 18 76 98 b7 75 db cf b7 da 75 f3 37 12 a4 d7 36
       -1.8174804e-05 -2.4778516e-05 2.9022736e-05 6.4265996e-06
0000d0 0f d1 80 b6 c7 46 cb b6 2c e5 f4 36 79 bf e0 36
       -3.839035e-06 -6.058111e-06 7.298446e-06 6.6980106e-06
0000e0 d2 e5 da 34 ed da 2d b6 7d f8 28 36 c0 3c 86 37
       4.077288e-07 -2.590644e-06 2.517859e-06 1.6002334e-05
0000f0 35 ff f0 36 ef 9e 8b 37 92 1e a6 b7 01 46 f3 b7
       7.1822674e-06 1.66441e-05 -1.9802977e-05 -2.9000455e-05

exp_avg_sq f4 [16, 4]
000000 c8 dd ca 32 da 58 08 33 52 b1 4b 33 83 18 6f 32
       2.361675e-08 3.1745778e-08 4.7425893e-08 1.3917204e-08
000010 b6 49 54 33 0c 34 3d 33 d8 37 9e 33 9b 3f 1c 33
       4.9427136e-08 4.4052328e-08 7.367606e-08 3.637943e-08
000020 83 95 e7 2f 33 5a 8e 2f e7 fd 04 30 c6 f6 35 30
       4.212489e-10 2.589374e-10 4.8382137e-10 6.61981e-10
000030 06 f8 ea 32 95 36 02 33 c6 69 4c 33 4e 23 ef 32
       2.7353973e-08 3.0317626e-08 4.759365e-08 2.7839317e-08
000040 0a f7 0f 33 47 99 38 33 12 77 89 33 03 f2 93 32
       3.3519463e-08 4.2980243e-08 6.4012184e-08 1.7223106e-08
000050 f8 78 da 32 3e b0 d7 32 83 ef 28 33 9c 1f 36 32
       2.543355e-08 2.510944e-08 3.9333383e-08 1.0600981e-08
000060 75 47 21 32 04 86 03 32 60 64 60 32 d0 f4 02 32
       9.387681e-09 7.655675e-09 1.3061339e-08 7.62266e-09
000070 e2 05 50 34 14 fa 65 34 b2 f5 b3 34 ed 49 2f 34
       1.937365e-07 2.1418265e-07 3.3520115e-07 1.6325039e-07
000080 06 7c b1 33 eb ff e3 33 92 53 2d 34 b6 9f 8c 33
       8.2647645e-08 1.06170624e-07 1.6142283e-07 6.548309e-08
000090 c4 2e 4e 30 18 cd 13 30 e6 b7 82 30 f2 df 8b 30
       7.500882e-10 5.3769744e-10 9.511012e-10 1.017723e-09
0000a0 fb b0 23 32 17 d6 90 31 4d 10 bf 31 ce 0b 27 33
       9.528089e-09 4.215291e-09 5.560685e-09 3.8893454e-08
0000b0 2c 35 07 37 9a 13 2f 37 3e fd 7f 37 80 a2 52 36
       8.059007e-06 1.0435377e-05 1.5258147e-05 3.1387026e-06
0000c0 ec fe 34 33 97 49 50 33 62 1e 9e 33 a6 c6 a6 32
       4.2141366e-08 4.8495703e-08 7.362975e-08 1.9415278e-08
0000d0 89 6c 1a 32 8d ab 04 32 e8 c8 60 32 e1 3e d8 31
       8.988658e-09 7.722417e-09 1.3084197e-08 6.293576e-09
0000e0 9b 79 2c 33 fd ed ef 32 7d 22 61 33 54 34 22 33
       4.015747e-08 2.7931486e-08 5.241826e-08 3.7766156e-08
0000f0 64 ba ca 33 e6 23 be 33 f8 d3 1b 34 d8 85 9d 33
       9.440262e-08 8.854094e-08 1.4512614e-07 7.335228e-08

exp_avg f4 [16]
000000 c6 69 dd b5 89 72 29 37 3e de d3 36 ca 7b 17 b8
       -1.6496567e-06 1.0099852e-05 6.3141624e-06 -3.6116493e-05
000010 4d 93 11 b7 41 0f a6 b7 f0 8e dc 36 87 b9 6a b8
       -8.67697e-06 -1.9795845e-05 6.573151e-06 -5.5962733e-05
000020 c1 10 bc 37 87 bc 07 37 15 b3 c2 b8 ae 2f b3 39
       2.2419148e-05 8.090522e-06 -9.2839975e-05 0.00034177065
000030 f8 96 82 b7 54 f4 7a 36 e7 5f aa 37 bb 7b c6 b7
       -1.5567508e-05 3.739512e-06 2.0310237e-05 -2.3661056e-05

exp_avg_sq f4 [16]
000000 fb bd f6 33 7e 36 3c 34 fd a7 02 31 ef b3 1a 34
       1.1489825e-07 1.7528689e-07 1.901298e-09 1.4407827e-07
000010 eb 11 11 34 ae 6a 99 33 92 8f 0d 33 87 5f 6f 35
       1.3510696e-07 7.1440226e-08 3.2959697e-08 8.917345e-07
000020 b7 00 fd 34 17 3b 6b 31 a8 f7 e4 33 7d a3 f5 37
       4.7125442e-07 3.423059e-09 1.0662126e-07 2.9282406e-05
000030 65 7b 1c 34 cc 6f 06 33 c6 c0 20 34 05 31 c1 34
       1.4573523e-07 3.1300985e-08 1.4971292e-07 3.5984718e-07

exp_avg f4 [16]
000000 c6 69 dd b5 89 72 29 37 3e de d3 36 ca 7b 17 b8
       -1.6496567e-06 1.0099852e-05 6.3141624e-06 -3.6116493e-05
000010 4d 93 11 b7 41 0f a6 b7 f0 8e dc 36 87 b9 6a b8
       -8.67697e-06 -1.9795845e-05 6.573151e-06 -5.5962733e-05
000020 c1 10 bc 37 87 bc 07 37 15 b3 c2 b8 ae 2f b3 39
       2.2419148e-05 8.090522e-06 -9.2839975e-05 0.00034177065
000030 f8 96 82 b7 54 f4 7a 36 e7 5f aa 37 bb 7b c6 b7
       -1.5567508e-05 3.739512e-06 2.0310237e-05 -2.3661056e-05

exp_avg_sq f4 [16]
000000 fb bd f6 33 7e 36 3c 34 fd a7 02 31 ef b3 1a 34
       1.1489825e-07 1.7528689e-07 1.901298e-09 1.4407827e-07
000010 eb 11 11 34 ae 6a 99 33 92 8f 0d 33 87 5f 6f 35
       1.3510696e-07 7.1440226e-08 3.2959697e-08 8.917345e-07
000020 b7 00 fd 34 17 3b 6b 31 a8 f7 e4 33 7d a3 f5 37
       4.7125442e-07 3.423059e-09 1.0662126e-07 2.9282406e-05
000030 65 7b 1c 34 cc 6f 06 33 c6 c0 20 34 05 31 c1 34
       1.4573523e-07 3.1300985e-08 1.4971292e-07 3.5984718e-07

exp_avg f4 [1, 4]
000000 03 f5 5c 39 11 75 a3 39 06 2b ca b9 93 70 81 b9
       0.00021072109 0.00031177004 -0.00038560497 -0.00024688672

exp_avg_sq f4 [1, 4]
000000 e3 5d 4b 37 28 13 4a 37 ea 6e a1 37 64 ed f3 36
       1.2121603e-05 1.2044598e-05 1.9244344e-05 7.2696002e-06
