assests/models/model_eth.pt (torch, 7653 bytes, 15 tensors)

lstm.weight_ih_l0 f4 [16, 1]
00000000: a0ac c73e 592e 163e 6e70 aabe 593a 46bf
00000010: e658 993e 9eab 493e 711b 88be 3867 33bf
00000020: 3afb 09bf 1329 17bf 6933 6bbf ae75 dbbd
00000030: 3adb e63e 3b6c 463e 5ae6 18bf d906 1ebf
0.3899889 0.14666118 -0.33288902 -0.7743278 0.29950637 0.19694373 -0.26583436 -0.70079374
-0.53898966 -0.5904705 -0.9187532 -0.10715805 0.45089132 0.19377224 -0.5972649 -0.617292

lstm.weight_hh_l0 f4 [16, 4]
00000000: 0256 303f 00bd 3b3d 90c8 ec3e e3ea 853e
00000010: c26a 09be 633c 1dbf 794e 2bbf 9754 573e
00000020: 4c81 25be a333 7fbf e94c 86be 5538 c33e
00000030: 7d4f de3e 52bb e0be d5e6 80be 7ec7 bf3e
00000040: c957 5b3f 95fd 1d3e 49d4 983e 429f 393f
00000050: c5c8 1e3c ac94 19bf 01aa 273d a5cd 613f
00000060: 5354 563e 9a3f 8dbf 4238 84be faa7 fc3d
00000070: d74a a53e 3be4 30be 6ec6 c73e 8556 febd
00000080: 096d 663e 9f47 463e e9fa ba3d 7ff3 c6bc
00000090: 33a8 46be 13bd 9cbe 0a94 01be e4e3 ddbc
000000a0: 79e5 f6bc 0ab0 10bf 99d3 33be c004 ca3d
000000b0: b350 b0be df6e f0be c904 0abe b7b7 e93d
000000c0: 04d0 983d 3108 25be 1764 f93e a1fb e13e
000000d0: 7290 01bf 3ef7 18bf 292d 6c3d 3d94 f43e
000000e0: a1f5 063e 372d 85bf 0384 963e 581d 443f
000000f0: 0e8e 1d3f 9fdb 743e 9f05 f13e 3712 563f
0.6888124 0.04583454 0.46246767 0.26155767 -0.13419631 -0.6142027 -0.66916615 0.21028362
-0.16162604 -0.99688166 -0.26230553 0.38128915 0.4342002 -0.43892914 -0.2517611 0.37456888
0.85680825 0.15428765 0.2984946 0.72508633 0.009691422 -0.5999248 0.040933613 0.88204414
0.20930605 -1.1035035 -0.2582417 0.123367265 0.3228366 -0.17274563 0.39018577 -0.12418846
0.22502531 0.19363259 0.091298886 -0.02428603 -0.194001 -0.30613002 -0.12654129 -0.027086206
-0.030138718 -0.56518614 -0.17561187 0.09864187 -0.3443657 -0.46959588 -0.13478388 0.11411994
0.07461551 -0.16116406 0.48709175 0.4413729 -0.5061103 -0.5975226 0.057660256 0.47769347
0.13179637 -1.0404423 0.29397592 0.76607275 0.61544883 0.23911904 0.470746 0.83621544

lstm.bias_ih_l0 f4 [16]
00000000: 8607 513e e4b8 97be 974a c43e 1f47 9fbe
00000010: 515e 9abe 6f5b e73e cd95 abbd 5418 d93e
00000020: eb8b a53d 7538 a2bd ef5c 823e 339a 363f
00000030: 1896 343f 0dbf ca3e 678d 093e 8325 f7bd
0.20413026 -0.29633248 0.38338158 -0.3110895 -0.30150083 0.45186946 -0.083781816 0.42401373
0.08083328 -0.079209246 0.25461528 0.7132904 0.70541525 0.39598885 0.13432847 -0.12067702

lstm.bias_hh_l0 f4 [16]
00000000: 875c 65be edfa 413c dd0d 303f 089a fdbd
00000010: 5344 ef3e 97a5 adbe cbab 373e e357 ad3d
00000020: 04d7 35bf 1c1f b2bc 5dfe 5f3e bc02 883d
00000030: 1655 633f 2414 733f 4234 c73e dcf9 023f
-0.22398578 0.0118396105 0.68771154 -0.12382895 0.46731815 -0.33915398 0.17936628 0.08464029
-0.7103121 -0.02174335 0.21874376 0.066411465 0.88801706 0.9495261 0.38907057 0.51162505

fc.weight f4 [1, 4]
00000000: bbb4 19bf d112 2ebf 02cb 40bf 0157 39bf
-0.600414 -0.6799746 -0.75309765 -0.7239838

exp_avg f4 [16, 1]
00000000: 26c2 7437 5eb9 3736 c191 4db6 4e7a 64b7
00000010: 3ec7 5f37 6311 7236 385a d5b6 c2b1 1db7
00000020: 3269 2ab6 8b9a 9eb7 0eff 85b8 2c04 23b7
00000030: 2960 9c36 2af5 3735 a4c4 a3b6 9313 31b7
1.4588737e-05 2.7377023e-06 -3.063222e-06 -1.3618335e-05 1.33382255e-05 3.607093e-06 -6.3583975e-06 -9.399317e-06
-2.5393206e-06 -1.8907032e-05 -6.389442e-05 -9.716528e-06 4.660357e-06 6.8529573e-07 -4.8806705e-06 -1.055458e-05

exp_avg_sq f4 [16, 1]
00000000: 80cd 5431 c74d 9f30 28b5 0d31 95ca 7732
00000010: 5704 4e31 b5d1 9030 658e 2f32 8f44 6032
00000020: 712a 2035 cb25 1133 0bb3 f032 6d38 3033
00000030: 29b3 942f 5ec4 aa2e 4471 0132 df9b 2332
3.0966874e-09 1.1590878e-09 2.0621176e-09 1.4423354e-08 2.9979412e-09 1.0536981e-09 1.0218717e-08 1.30541045e-08
5.9666405e-07 3.3794816e-08 2.8021097e-08 4.1029512e-08 2.7048344e-10 7.765587e-11 7.534542e-09 9.52329e-09

exp_avg f4 [16, 4]
00000000: 550d 8ab7 d546 e9b6 43c6 a436 17e3 ba36
00000010: a518 6cb6 3675 c3b5 4847 9335 1eae 8c35
00000020: 6877 8736 60fb e035 59d1 cfb5 58e2 e3b5
00000030: 5a4d 8737 c01c e236 04cd afb6 2a4a cbb6
00000040: c61e 80b7 d514 d9b6 9ed9 9936 1217 ad36
00000050: b90b 95b6 3bc3 f3b5 6ab3 c935 1df3 ca35
00000060: 818a 0f37 fdb0 6c36 c0b0 64b6 aee9 78b6
00000070: 127a 3937 3cb7 9f36 b366 6bb6 712f 89b6
00000080: 5c7c 7237 000a b436 480a 3bb7 c04d 4cb7
00000090: bd14 fe37 5217 4f37 082b 67b7 92cb 64b7
000000a0: 5252 af38 365b 0b38 5475 03b8 a9d9 0eb8
000000b0: 7e12 4637 32ae a936 cfdc 87b6 e5c0 a0b6
000000c0: aea2 b9b6 f7cc 1bb6 e389 f435 5705 0236
000000d0: b923 4db5 2117 b0b4 9eb5 6534 6354 3f34
000000e0: 626a e136 9281 3c36 4692 3eb6 501c 49b6
000000f0: 8e55 6337 1ec2 bc36 350d abb6 b5dc b8b6
-1.645709e-05 -6.952187e-06 4.9106616e-06 5.5696687e-06 -3.5181085e-06 -1.4562745e-06 1.0973099e-06 1.0481488e-06
4.0372142e-06 1.676246e-06 -1.548363e-06 -1.6978693e-06 1.6129274e-05 6.738672e-06 -5.2392734e-06 -6.0585053e-06
-1.5273119e-05 -6.469529e-06 4.5850893e-06 5.1584875e-06 -4.4419107e-06 -1.816173e-06 1.5027883e-06 1.5120928e-06
8.555712e-06 3.5269761e-06 -3.407753e-06 -3.70909e-06 1.1055281e-05 4.7599005e-06 -3.5077508e-06 -4.088441e-06
1.4453279e-05 5.365582e-06 -1.1148462e-05 -1.217745e-05 3.0288817e-05 1.2343591e-05 -1.3778692e-05 -1.3637256e-05
8.3599836e-05 3.322513e-05 -3.1342104e-05 -3.405815e-05 1.1806025e-05 5.0568715e-06 -4.049019e-06 -4.7908275e-06
-5.532368e-06 -2.3216105e-06 1.8219547e-06 1.9374618e-06 -7.6420434e-07 -3.2799383e-07 2.1393359e-07 1.7818961e-07
6.717907e-06 2.8089603e-06 -2.8397349e-06 -2.9967814e-06 1.3550174e-05 5.625435e-06 -5.0977346e-06 -5.509321e-06

exp_avg_sq f4 [16, 4]
00000000: ea4d c930 1450 632f 1fb9 4a31 0729 2f31
00000010: 316c c32e 9dce 922e 8226 6030 d375 7330
00000020: 455f 882f dc82 a32e 7993 e230 5604 d830
00000030: 634a 1c31 961c 0230 1c07 2f32 a58c 1332
00000040: 4979 bc30 c254 562f 8887 5331 3de8 3a31
00000050: f7c1 102f 971e ad2e c031 2c30 645b 3a30
00000060: 9f68 a030 b07c cf2f b864 0d32 2941 0832
00000070: 9451 fa30 8965 0030 71bc 3732 0651 2332
00000080: edd4 af32 5286 a232 b622 c534 f21a b534
00000090: 21dc e031 19f1 1831 44b0 e732 6a08 f632
000000a0: bb9b c232 553b a631 6274 8232 3c55 7732
000000b0: 72cc 4e31 028d a230 ed03 dc32 b9b7 bb32
000000c0: 5737 322f 9b98 c32d 498d a12f 0e69 982f
000000d0: f575 de2c 2a4a b32c 17a5 6e2e 8322 932e
000000e0: d6fd 7230 b5f6 9f2f 1bb6 d731 0f81 de31
000000f0: 47ac ec30 c15c de2f 093c 0e32 d3ea 0d32
1.4646819e-09 2.0673979e-10 2.9500098e-09 2.5489173e-09 8.886792e-11 6.676013e-11 8.154545e-10 8.8570323e-10
2.480595e-10 7.435627e-11 1.6485578e-09 1.5717301e-09 2.2743272e-09 4.733435e-10 1.0187957e-08 8.588505e-09
1.3713272e-09 1.9493299e-10 3.0781582e-09 2.7198575e-09 1.3165634e-10 7.872563e-11 6.2643934e-10 6.779628e-10
1.1671267e-09 3.7741676e-10 8.230181e-09 7.931058e-09 1.821308e-09 4.671042e-10 1.0694849e-08 9.506271e-09
2.0469509e-08 1.8920364e-08 3.6719365e-07 3.3733482e-07 6.544284e-09 2.225596e-09 2.6972096e-08 2.8641995e-08
2.265539e-08 4.837981e-09 1.5186917e-08 1.4396672e-08 3.009316e-09 1.1827128e-09 2.5613156e-08 2.1853213e-08
1.6208666e-10 2.2236704e-11 2.9386119e-10 2.7723285e-10 6.3227154e-12 5.09572e-12 5.4261564e-11 6.6909166e-11
8.839981e-10 2.9097227e-10 6.2780265e-09 6.4757226e-09 1.7220224e-09 4.044747e-10 8.279138e-09 8.260673e-09

exp_avg f4 [16]
00000000: a619 fb37 3fe2 9736 f221 03b7 eb22 02b8
00000010: 251d e637 a5f3 ed36 7a70 8bb7 da05 afb7
00000020: c1d9 25b8 c197 53b8 44f0 23b9 4e8a c9b7
00000030: eefc 2437 55a5 8735 c172 59b7 8e0b d6b7
2.9933475e-05 4.526489e-06 -7.816112e-06 -3.1026935e-05 2.7431708e-05 7.0915144e-06 -1.6622467e-05 -2.086435e-05
-3.9541865e-05 -5.0447652e-05 -0.00015634397 -2.402547e-05 9.8340515e-06 1.0106402e-06 -1.2960926e-05 -2.5516169e-05

exp_avg_sq f4 [16]
00000000: f591 4932 bebe e130 f43f 8e31 5576 1433
00000010: 3802 3b32 e4c4 d630 a018 ac32 e971 f832
00000020: 513b 7135 d541 8333 af41 dc33 23fb a633
00000030: 4ecc 9330 a9de eb2e ee75 7832 bc52 b632
1.1732927e-08 1.6425117e-09 4.1400146e-09 3.4566558e-08 1.0885337e-08 1.5626509e-09 2.0034634e-08 2.89228e-08
8.9865813e-07 6.1121376e-08 1.0256496e-07 7.775659e-08 1.0753725e-09 1.0726115e-10 1.4462314e-08 2.1225212e-08

exp_avg f4 [16]
00000000: a619 fb37 3fe2 9736 f221 03b7 eb22 02b8
00000010: 251d e637 a5f3 ed36 7a70 8bb7 da05 afb7
00000020: c1d9 25b8 c197 53b8 44f0 23b9 4e8a c9b7
00000030: eefc 2437 55a5 8735 c172 59b7 8e0b d6b7
2.9933475e-05 4.526489e-06 -7.816112e-06 -3.1026935e-05 2.7431708e-05 7.0915144e-06 -1.6622467e-05 -2.086435e-05
-3.9541865e-05 -5.0447652e-05 -0.00015634397 -2.402547e-05 9.8340515e-06 1.0106402e-06 -1.2960926e-05 -2.5516169e-05

exp_avg_sq f4 [16]
00000000: f591 4932 bebe e130 f43f 8e31 5576 1433
00000010: 3802 3b32 e4c4 d630 a018 ac32 e971 f832
00000020: 513b 7135 d541 8333 af41 dc33 23fb a633
00000030: 4ecc 9330 a9de eb2e ee75 7832 bc52 b632
1.1732927e-08 1.6425117e-09 4.1400146e-09 3.4566558e-08 1.0885337e-08 1.5626509e-09 2.0034634e-08 2.89228e-08
8.9865813e-07 6.1121376e-08 1.0256496e-07 7.775659e-08 1.0753725e-09 1.0726115e-10 1.4462314e-08 2.1225212e-08

exp_avg f4 [1, 4]
00000000: 93e3 22b9 4b29 84b8 01de 8838 ee3d 9038
-0.00015534302 -6.301942e-05 6.526337e-05 6.8779904e-05

exp_avg_sq f4 [1, 4]
00000000: f914 3d34 d7c6 5c33 6851 5d35 76ae 6c35
1.7609626e-07 5.1403585e-08 8.244738e-07 8.8170725e-07
