assests/models/model_tsla.pt (torch, 8354 bytes, 15 tensors)

lstm.weight_ih_l0 f4 [16, 1]
-0.6244608 0.9144251 -0.46408254 -0.6040024 -1.1992289 0.4998084 0.15065657 -0.41309857
-0.13717178 -0.35964125 0.6659656 0.008544736 -1.3630418 1.0836145 -0.59115356 -1.5715373
00000000: aadc 1fbf c317 6a3f 3a9c edbe e79f 1abf
00000010: 5580 99bf e3e6 ff3e b745 1a3e a881 d3be
00000020: c276 0cbe e622 b8be b97c 2a3f 38ff 0b3c
00000030: 2778 aebf e1b3 8a3f d755 17bf 2228 c9bf

lstm.weight_hh_l0 f4 [16, 4]
-0.20378011 -0.57975256 0.18300654 0.14296524 -0.17236724 0.3259958 -0.4162308 -0.27107072
0.4841425 -0.4356065 0.13645762 -0.17343843 -0.259909 0.17359546 0.18149923 -0.36987484
-0.2331746 0.025842464 0.35868096 -0.027503632 0.6030152 0.5833351 -0.34664565 -0.10075242
-0.010244948 0.53346914 0.40194175 -0.23494463 -0.44195643 0.106865965 0.46123803 -0.46290335
0.43432656 -0.08295189 -0.19654304 -0.530092 -0.34840578 0.402681 -0.70284355 0.51240987
0.4774065 0.41268906 -0.095951766 -0.33314317 -0.35261703 0.638679 -0.15463701 -0.121758275
-0.33689657 0.31824723 -0.5419785 -0.21727555 0.650494 0.34368077 0.17882128 -0.2750401
0.11723822 -0.3814753 0.004125087 -0.9938098 -0.097051315 0.1703786 0.7962173 -0.1115216
00000000: bcab 50be aa6a 14bf 1166 3b3e 7b65 123e
00000010: 0a81 30be ece8 a63e 341c d5be c8c9 8abe
00000020: 87e1 f73e d107 dfbe 8cbb 0b3e d899 31be
00000030: cb12 85be 02c3 313e efda 393e 3c60 bdbe
00000040: 53c5 6ebe 93b3 d33c 08a5 b73e 4c4f e1bc
00000050: 345f 1a3f 7355 153f 8a7b b1be 4957 cebd
00000060: 6dda 27bc 6f91 083f 4fcb cd3e 5395 70be
00000070: 1d48 e2be 8bdc da3d 6427 ec3e ab01 edbe
00000080: 0d60 de3e aee2 a9bd 9442 49be 1cb4 07bf
00000090: 3e62 b2be 342c ce3e 8eed 33bf 4b2d 033f
000000a0: a06e f43e fb4b d33e 5c82 c4bd be91 aabe
000000b0: 388a b4be 7880 233f 2a59 1ebe 675c f9bd
000000c0: b57d acbe 4df1 a23e 1abf 0abf 7b7d 5ebe
000000d0: c686 263f edf6 af3e ed1c 373e 0ed2 8cbe
000000e0: 981a f03d bb50 c3be bd2b 873b 526a 7ebf
000000f0: d7c2 c6bd ba77 2e3e e6d4 4b3f 7065 e4bd

lstm.bias_ih_l0 f4 [16]
-0.09410383 0.17779596 0.25820082 -0.09462069 -0.1744927 -0.2508278 0.12645249 0.469548
0.7100558 -0.31823745 0.078457795 -0.5601337 0.056356862 0.19722867 0.41171628 -0.31457683
00000000: 82b9 c0bd 2510 363e e632 843e 7ec8 c1bd
00000010: 37ae 32be 806c 80be c37c 013e 9868 f03e
00000020: 38c6 353f 05f0 a2be 7bae a03d ec64 0fbf
00000030: 74d6 663d 50f6 493e 7acc d23e 3710 a1be

lstm.bias_hh_l0 f4 [16]
-0.12766518 0.27804762 0.3588785 0.5515534 -0.63916945 0.14481428 0.31240517 0.30156544
-0.23287363 -0.036749408 -0.19863835 -0.5174903 0.06533343 -0.30881953 0.084843956 -0.081462935
00000000: a9ba 02be 425c 8e3e ecbe b73e 9b32 0d3f
00000010: 9ca0 23bf 324a 143e 92f3 9f3e c966 9a3e
00000020: 6d76 6ebe 8c86 16bd da67 4bbe 3f7a 04bf
00000030: 89cd 853d 981d 9ebe abc2 ad3d 0ad6 a6bd

fc.weight f4 [1, 4]
-0.50747466 -0.45543113 0.99278176 0.48567942
00000000: dce9 01bf 452e e9be f226 7e3f f9aa f83e

exp_avg f4 [16, 1]
-6.97502e-06 5.889759e-06 -1.9771229e-05 -2.6949251e-06 -6.353566e-06 7.489714e-06 -4.056775e-05 -6.512438e-06
-4.5203265e-06 -1.2810846e-05 0.0005828203 2.2592096e-06 -5.403271e-06 9.033057e-06 -1.8370458e-05 -3.596785e-05
00000000: f70a eab6 a5a0 c536 64da a5b7 76da 34b6
00000010: b730 d5b6 2750 fb36 4a27 2ab8 6b85 dab6
00000020: 4fad 97b6 2aee 56b7 69c8 183a ed9c 1736
00000030: bf4d b5b6 af8c 1737 421a 9ab7 2fdc 16b8

exp_avg_sq f4 [16, 1]
1.540784e-09 1.5822328e-09 3.3825238e-08 2.80657e-10 3.2684804e-09 1.7193412e-09 2.8378886e-07 2.1763615e-09
1.9469977e-09 1.2636949e-08 1.6892149e-05 2.9827207e-10 1.4246816e-09 3.7088046e-09 2.3695863e-08 5.261095e-08
00000000: 84c3 d330 de75 d930 3e47 1133 f64a 9a2f
00000010: b79b 6031 f14d ec30 a55b 9834 f58e 1531
00000020: f2cb 0531 e419 5932 9db3 8d37 10fa a32f
00000030: 87ce c330 fbdd 7e31 c18b cb32 5af6 6133

exp_avg f4 [16, 4]
7.027662e-06 -4.639629e-06 -2.381022e-06 -1.0263682e-05 -5.905451e-06 4.8356883e-06 1.9791598e-06 8.8533225e-06
1.804007e-05 -1.17754835e-05 -8.795044e-06 -2.6490377e-05 3.7525356e-06 -3.4581203e-06 -1.1767415e-06 -5.6843755e-06
6.2825975e-06 -4.220317e-06 -2.4279248e-06 -9.330301e-06 -7.893878e-06 6.5781264e-06 2.9585683e-06 1.2029587e-05
3.803343e-05 -2.386765e-05 -1.8929964e-05 -5.5800952e-05 7.4572176e-06 -6.4014466e-06 -2.765459e-06 -1.1342091e-05
4.8654433e-06 -2.8264103e-06 -1.171492e-06 -6.896673e-06 1.4353013e-05 -1.196051e-05 -3.3194979e-06 -2.0871812e-05
-0.0007020901 0.00058264943 0.00029183377 0.0010666165 -3.3708995e-06 3.0496244e-06 1.0074157e-06 5.055526e-06
6.301259e-06 -2.5256306e-06 -3.2741991e-06 -9.073134e-06 -9.509712e-06 5.578162e-06 4.548892e-06 1.4187721e-05
1.7481061e-05 -1.086487e-05 -8.390038e-06 -2.531408e-05 3.85426e-05 -2.7149359e-05 -1.6891543e-05 -5.7508554e-05
00000000: 28cf eb36 1cae 9bb6 a5c9 1fb6 2e32 2cb7
00000010: 7027 c6b6 3f42 a236 b5d1 0436 bb88 1437
00000020: c154 9737 518f 45b7 6d8e 13b7 a737 deb7
00000030: 12d4 7b36 0e12 68b6 88f0 9db5 6abc beb6
00000040: 1acf d236 3f9c 8db6 6eef 22b6 5689 1cb7
00000050: f36f 04b7 adb9 dc36 d18b 4636 afd2 4937
00000060: 1686 1f38 6337 c8b7 cacb 9eb7 d10b 6ab8
00000070: 0339 fa36 02cc d6b6 3996 39b6 e949 3eb7
00000080: d741 a336 5cad 3db6 293c 9db5 f869 e7b6
00000090: b9cd 7037 00aa 48b7 8ac4 5eb6 e015 afb7
000000a0: 780c 38ba f1bc 183a 4401 9939 b6cd 8b3a
000000b0: 9d37 62b6 26a8 4c36 8a36 8735 a3a2 a936
000000c0: 676f d336 017e 29b6 50ba 5bb6 d038 18b7
000000d0: e78b 1fb7 0c2c bb36 afa2 9836 cc07 6e37
000000e0: 4ba4 9237 4348 36b7 f0c2 0cb7 9359 d4b7
000000f0: cda8 2138 cebe e3b7 50b2 8db7 5735 71b8

exp_avg_sq f4 [16, 4]
1.4468491e-09 3.837805e-10 1.6523755e-10 2.2994018e-09 8.703415e-10 3.0080924e-10 1.8687824e-10 1.5058431e-09
1.5309288e-08 2.3776165e-09 5.752233e-09 2.3361636e-08 3.1450353e-10 1.9731485e-10 5.5768737e-11 5.831526e-10
2.083872e-09 3.4503828e-10 3.505244e-10 2.9944744e-09 1.1301301e-09 6.152591e-10 2.3271607e-10 2.2696383e-09
1.2257583e-07 9.83557e-09 5.0008794e-08 1.7237589e-07 1.4537302e-09 6.596497e-10 3.484256e-10 2.5618283e-09
5.631971e-10 1.8437019e-10 1.9790844e-10 1.0918972e-09 8.292916e-09 1.895648e-09 1.3666096e-09 1.1955351e-08
1.1047135e-05 5.5903474e-06 3.0894937e-06 2.0336498e-05 3.714163e-10 1.4785058e-10 7.2282014e-11 5.9425925e-10
9.0319346e-10 1.16364425e-10 2.4673688e-10 1.6638082e-09 1.8880433e-09 3.424667e-10 6.0520006e-10 3.5514647e-09
1.2674774e-08 2.1133388e-09 3.931149e-09 1.9336115e-08 3.4212277e-08 1.0861238e-08 8.195554e-09 6.0895694e-08
00000000: 7ada c630 4efc d22f 3cae 352f 8103 1e31
00000010: d73c 6f30 235f a52f 8c79 4d2f 25f6 ce30
00000020: 7b81 8332 7963 2331 2da5 c531 c8ac c832
00000030: 70e6 ac2f 31f3 582f 0446 752e b74b 2030
00000040: dd33 0f31 d2af bd2f ecb3 c02f 5ac7 4d31
00000050: eb52 9b30 031f 2930 c0df 7f2f e6f7 1b31
00000060: 639d 0334 4bf9 2832 40c9 5633 5316 3934
00000070: 96cc c730 b952 3530 8b8c bf2f 290c 3031
00000080: 79cf 1a30 98b7 4a2f 469a 592f b811 9630
00000090: a178 0e32 9844 0231 4dd3 bb30 3164 4d32
000000a0: 1557 3937 b894 bb36 1955 4f36 4c98 aa37
000000b0: 3230 cc2f 3d90 222f 28f3 9e2e 4759 2330
000000c0: 9744 7830 59e3 ff2e 21a5 872f 0cac e430
000000d0: cfbe 0131 e745 bc2f 2b5b 2630 070e 7431
000000e0: 3fc0 5932 403a 1131 c112 8731 9118 a632
000000f0: ccf0 1233 3b98 3a32 6dcc 0c32 c3c5 8233

exp_avg f4 [16]
6.492119e-06 -1.0580298e-05 6.188256e-05 8.700846e-06 1.3291947e-05 -2.2503353e-05 0.00012735136 2.4780007e-05
-1.3679144e-05 -1.964214e-07 -0.00264745 -6.0820694e-06 6.031242e-06 -1.7337032e-05 5.2276304e-05 0.000109608045
00000000: e1d6 d936 0982 31b7 f2c6 8138 d9f9 1137
00000010: 7a00 5f37 95c5 bcb7 9f89 0539 a9de cf37
00000020: 7a7f 65b7 e7e7 52b4 d780 2dbb 9414 ccb6
00000030: f95f ca36 fe6e 91b7 4143 5b38 5fdd e538

exp_avg_sq f4 [16]
1.6333832e-09 2.1637845e-09 8.990051e-08 1.3004757e-09 5.5323635e-09 7.0677486e-09 5.53525e-07 1.03710756e-08
3.8585353e-09 8.013114e-09 0.00010872113 8.1733553e-10 1.1838699e-09 4.6751016e-09 6.295626e-08 1.9339313e-07
00000000: 907d e030 b3b1 1431 540f c133 6cbc b230
00000010: 2f17 be31 93d8 f231 f395 1435 792c 3232
00000020: 0994 8431 0caa 0932 3601 e438 e0aa 6030
00000030: b8b5 a230 a1a2 a031 9232 8733 80a7 4f34

exp_avg f4 [16]
6.492119e-06 -1.0580298e-05 6.188256e-05 8.700846e-06 1.3291947e-05 -2.2503353e-05 0.00012735136 2.4780007e-05
-1.3679144e-05 -1.964214e-07 -0.00264745 -6.0820694e-06 6.031242e-06 -1.7337032e-05 5.2276304e-05 0.000109608045
00000000: e1d6 d936 0982 31b7 f2c6 8138 d9f9 1137
00000010: 7a00 5f37 95c5 bcb7 9f89 0539 a9de cf37
00000020: 7a7f 65b7 e7e7 52b4 d780 2dbb 9414 ccb6
00000030: f95f ca36 fe6e 91b7 4143 5b38 5fdd e538

exp_avg_sq f4 [16]
1.6333832e-09 2.1637845e-09 8.990051e-08 1.3004757e-09 5.5323635e-09 7.0677486e-09 5.53525e-07 1.03710756e-08
3.8585353e-09 8.013114e-09 0.00010872113 8.1733553e-10 1.1838699e-09 4.6751016e-09 6.295626e-08 1.9339313e-07
00000000: 907d e030 b3b1 1431 540f c133 6cbc b230
00000010: 2f17 be31 93d8 f231 f395 1435 792c 3232
00000020: 0994 8431 0caa 0932 3601 e438 e0aa 6030
00000030: b8b5 a230 a1a2 a031 9232 8733 80a7 4f34

exp_avg f4 [1, 4]
-0.0007337005 0.0005924857 0.0002947451 0.0010890566
00000000: cf55 40ba 0b51 1b3a 0588 9a39 adbe 8e3a

exp_avg_sq f4 [1, 4]
1.2547521e-05 5.438626e-06 3.1162522e-06 2.2196848e-05
00000000: 3183 5237 717d b636 ce20 5136 5e33 ba37
